…
2021-03-14 21:47:09.101637: I tensorflow/stream_executor/platform/default/dso_loader.cc:48] Successfully opened dynamic library libcudnn.so.7
0
1
2
3
4
5
6
7
8
9
10
11
12
13
14
15
16
17
18
19
20
21
22
23
24
25
26
27
28
29
30
31
32
33
34
35
36
37
38
39
40
41
42
43
44
45
46
47
48
49
50
51
52
53
54
55
56
57
58
59
60
61
62
63
64
65
66
67
68
69
70
71
72
73
74
75
76
77
78
79
80
81
82
83
84
85
86
87
88
89
90
91
92
93
94
95
96
97
98
99
100
(80, 100, 100, 1)
(21, 100, 100, 1)
(80,)
(21,)
TRAINING
Model: "sequential"
_________________________________________________________________
Layer (type)                 Output Shape              Param #   
=================================================================
conv2d (Conv2D)              (None, 95, 95, 32)        1184      
_________________________________________________________________
max_pooling2d (MaxPooling2D) (None, 47, 47, 32)        0         
_________________________________________________________________
conv2d_1 (Conv2D)            (None, 45, 45, 64)        18496     
_________________________________________________________________
max_pooling2d_1 (MaxPooling2 (None, 22, 22, 64)        0         
_________________________________________________________________
conv2d_2 (Conv2D)            (None, 20, 20, 128)       73856     
_________________________________________________________________
max_pooling2d_2 (MaxPooling2 (None, 10, 10, 128)       0         
_________________________________________________________________
conv2d_3 (Conv2D)            (None, 8, 8, 128)         147584    
_________________________________________________________________
max_pooling2d_3 (MaxPooling2 (None, 4, 4, 128)         0         
_________________________________________________________________
flatten (Flatten)            (None, 2048)              0         
_________________________________________________________________
dense (Dense)                (None, 512)               1049088   
_________________________________________________________________
dense_1 (Dense)              (None, 120)               61560     
=================================================================
Total params: 1,351,768
Trainable params: 1,351,768
Non-trainable params: 0
_________________________________________________________________
Epoch 1/150
1/1 [==============================] - ETA: 0s - loss: 4.7817 - accuracy: 0.01561/1 [==============================] - 0s 212ms/step - loss: 4.7817 - accuracy: 0.0156 - val_loss: 4.7411 - val_accuracy: 0.0000e+00
…
