…
2021-03-14 20:42:46.138921: I tensorflow/stream_executor/platform/default/dso_loader.cc:48] Successfully opened dynamic library libcublas.so.10
2021-03-14 20:42:46.358551: I tensorflow/stream_executor/platform/default/dso_loader.cc:48] Successfully opened dynamic library libcudnn.so.7
0
1
2
3
4
5
6
7
8
9
10
(8, 100, 100, 1)
(3, 100, 100, 1)
(8,)
(3,)
TRAINING
Model: "sequential"
_________________________________________________________________
Layer (type)                 Output Shape              Param #   
=================================================================
conv2d (Conv2D)              (None, 98, 98, 32)        320       
_________________________________________________________________
max_pooling2d (MaxPooling2D) (None, 49, 49, 32)        0         
_________________________________________________________________
conv2d_1 (Conv2D)            (None, 47, 47, 64)        18496     
_________________________________________________________________
max_pooling2d_1 (MaxPooling2 (None, 23, 23, 64)        0         
_________________________________________________________________
conv2d_2 (Conv2D)            (None, 21, 21, 128)       73856     
_________________________________________________________________
max_pooling2d_2 (MaxPooling2 (None, 10, 10, 128)       0         
_________________________________________________________________
conv2d_3 (Conv2D)            (None, 8, 8, 128)         147584    
_________________________________________________________________
max_pooling2d_3 (MaxPooling2 (None, 4, 4, 128)         0         
_________________________________________________________________
flatten (Flatten)            (None, 2048)              0         
_________________________________________________________________
dense (Dense)                (None, 512)               1049088   
_________________________________________________________________
dense_1 (Dense)              (None, 2)                 1026      
=================================================================
Total params: 1,290,370
Trainable params: 1,290,370
Non-trainable params: 0
_________________________________________________________________
Epoch 1/50
1/1 [==============================] - ETA: 0s - loss: 0.7062 - accuracy: 0.0000e+001/1 [==============================] - 0s 187ms/step - loss: 0.7062 - accuracy: 0.0000e+00 - val_loss: 0.5301 - val_accuracy: 1.0000
…
