…
2021-03-10 22:22:53.829288: I tensorflow/core/common_runtime/gpu/gpu_device.cc:1402] Created TensorFlow device (/job:localhost/replica:0/task:0/device:GPU:0 with 22501 MB memory) -> physical GPU (device: 0, name: Quadro RTX 6000, pci bus id: 0000:17:00.0, compute capability: 7.5)
2021-03-10 22:22:53.832013: I tensorflow/core/common_runtime/gpu/gpu_device.cc:1402] Created TensorFlow device (/job:localhost/replica:0/task:0/device:GPU:1 with 22501 MB memory) -> physical GPU (device: 1, name: Quadro RTX 6000, pci bus id: 0000:25:00.0, compute capability: 7.5)
(18968, 200, 200, 3)
(4742, 200, 200, 3)
(18968,)
(4742,)
TRAINING
Model: "sequential"
_________________________________________________________________
Layer (type)                 Output Shape              Param #   
=================================================================
conv2d (Conv2D)              (None, 198, 198, 32)      896       
_________________________________________________________________
max_pooling2d (MaxPooling2D) (None, 99, 99, 32)        0         
_________________________________________________________________
conv2d_1 (Conv2D)            (None, 97, 97, 64)        18496     
_________________________________________________________________
max_pooling2d_1 (MaxPooling2 (None, 48, 48, 64)        0         
_________________________________________________________________
conv2d_2 (Conv2D)            (None, 46, 46, 128)       73856     
_________________________________________________________________
max_pooling2d_2 (MaxPooling2 (None, 23, 23, 128)       0         
_________________________________________________________________
conv2d_3 (Conv2D)            (None, 21, 21, 128)       147584    
_________________________________________________________________
max_pooling2d_3 (MaxPooling2 (None, 10, 10, 128)       0         
_________________________________________________________________
flatten (Flatten)            (None, 12800)             0         
_________________________________________________________________
dense (Dense)                (None, 512)               6554112   
_________________________________________________________________
dense_1 (Dense)              (None, 2)                 1026      
=================================================================
Total params: 6,795,970
Trainable params: 6,795,970
Non-trainable params: 0
_________________________________________________________________
Traceback (most recent call last):
  File "train.py", line 117, in <module>
    history = model.fit(X_train, y_train, batch_size=batch_size, epochs=epochs, validation_split=0.1)
  File "/opt/spack_home/arch_skylake_avx512/spack_repo/var/spack/environments/python-cuda-ml-20-11/.spack-env/view/lib/python3.8/site-packages/tensorflow/python/keras/engine/training.py", line 108, in _method_wrapper
…
