…
2021-03-10 22:16:10.811613: I tensorflow/core/common_runtime/gpu/gpu_device.cc:1402] Created TensorFlow device (/job:localhost/replica:0/task:0/device:GPU:1 with 22501 MB memory) -> physical GPU (device: 1, name: Quadro RTX 6000, pci bus id: 0000:25:00.0, compute capability: 7.5)
2021-03-10 22:16:11.888384: I tensorflow/stream_executor/platform/default/dso_loader.cc:48] Successfully opened dynamic library libcublas.so.10
2021-03-10 22:16:12.442301: I tensorflow/stream_executor/platform/default/dso_loader.cc:48] Successfully opened dynamic library libcudnn.so.7
(80, 200, 200, 3)
(21, 200, 200, 3)
(80,)
(21,)
TRAINING
Model: "sequential"
_________________________________________________________________
Layer (type)                 Output Shape              Param #   
=================================================================
conv2d (Conv2D)              (None, 198, 198, 32)      896       
_________________________________________________________________
max_pooling2d (MaxPooling2D) (None, 99, 99, 32)        0         
_________________________________________________________________
conv2d_1 (Conv2D)            (None, 97, 97, 64)        18496     
_________________________________________________________________
max_pooling2d_1 (MaxPooling2 (None, 48, 48, 64)        0         
_________________________________________________________________
conv2d_2 (Conv2D)            (None, 46, 46, 128)       73856     
_________________________________________________________________
max_pooling2d_2 (MaxPooling2 (None, 23, 23, 128)       0         
_________________________________________________________________
conv2d_3 (Conv2D)            (None, 21, 21, 128)       147584    
_________________________________________________________________
max_pooling2d_3 (MaxPooling2 (None, 10, 10, 128)       0         
_________________________________________________________________
flatten (Flatten)            (None, 12800)             0         
_________________________________________________________________
dense (Dense)                (None, 512)               6554112   
_________________________________________________________________
dense_1 (Dense)              (None, 2)                 1026      
=================================================================
Total params: 6,795,970
Trainable params: 6,795,970
Non-trainable params: 0
_________________________________________________________________
Epoch 1/10
1/2 [==============>...............] - ETA: 0s - loss: 0.6940 - accuracy: 0.50002/2 [==============================] - ETA: 0s - loss: 0.7207 - accuracy: 0.48612/2 [==============================] - 0s 159ms/step - loss: 0.7207 - accuracy: 0.4861 - val_loss: 0.8230 - val_accuracy: 0.3750
…
